data/numer1_onnx.onnx (onnx, 4873 bytes, 5 tensors)

conv1.weight f4 [6, 1, 3, 3]
00000000: 3449 c53d 4456 c93d 787c 063d e001 f33d
00000010: e633 0a3e 90f6 f3bc 50f6 c0bd 7426 fc3d
00000020: 841a 81bd bc67 95be 4057 d5bd 98cb 013e
00000030: 1cb8 ca3d fb69 13be c0a0 223d 1039 9f3c
00000040: ab65 933e 8816 33be 4095 febb c650 2a3e
00000050: dc4a aabe 089f 1d3e eef1 62be a0ab a2bd
00000060: 3a4c 383e b033 ad3c e623 8cbe 50ad 91bc
00000070: 5630 e2bd de18 59be d834 65bd e06f 64bc
00000080: e6ac 413e ee47 263e 4400 c93d d871 123e
00000090: 7e42 1a3e 4ba3 a43e d17d 953e 86d8 0e3e
000000a0: e0b9 a5bd 2222 063e a47d 92bd 0a07 6b3e
000000b0: 0326 98be 248f ee3d d4db a43d 9650 99be
000000c0: 69a0 8b3e 4e5c 233e 48f7 25bd f04a a5bd
000000d0: 5093 9cbd 002a b13b
0.09633103 0.09830907 0.032833546 0.11865592 0.1349636 -0.029780656 -0.094219804 0.12312022
-0.063038856 -0.29180706 -0.10417032 0.12675321 0.09898397 -0.14395897 0.039704084 0.01943639
0.28788504 -0.17489064 -0.007769257 0.16632375 -0.33260238 0.15392697 -0.22162601 -0.07942891
0.17997828 0.02114281 -0.27371138 -0.017782837 -0.110443756 -0.21200892 -0.0559586 -0.013942689
0.18913612 0.16238376 0.09814504 0.1430124 0.15064427 0.32155833 0.29197553 0.13949785
-0.080920935 0.13098958 -0.0715287 0.22951904 -0.297165 0.11648396 0.080497414 -0.29944295
0.2727082 0.1595318 -0.04051903 -0.08070934 -0.07645285 0.005406618

conv1.bias f4 [6]
00000000: 7416 c63d 5ecf 0c3e 001d 26bc 5655 5b3e
00000010: c7c2 98be 0046 79ba
0.09672251 0.1375098 -0.01013875 0.21419272 -0.29836103 -0.0009509027

conv2.weight f4 [16, 6, 3, 3]
00000000: f606 36bd 0852 023e 11b6 b2bd 0028 c6b8
00000010: 3ecb edbd 3043 6bbd 4c20 743d 3c76 a03d
00000020: 2fcf 0abe 2e89 853d d21f b3bd 14f2 fc3d
00000030: e85c 6bbc 3462 b33d d413 2fbd 8e43 a5bd
00000040: f202 933d 4045 1c3d 9e59 7ebd 927e c63d
00000050: a658 de3d 7896 ddbc 3c87 09bd ac9a 123d
00000060: f03b f0bd d83d 673d d06c a43c 8c5a 483d
00000070: 7ce5 143d e036 023d 0cd4 af3d 689c bb3c
00000080: 764f 08be eb47 b1bd c4f3 8f3d 7a05 4dbd
00000090: a63f d0bd 4cf3 e03d 31b3 d0bd 7020 c13d
000000a0: 7e65 a93d 00e3 be3d fc22 ea3d 48a8 7cbc
000000b0: 9281 b2bd 7801 bb3d 46b1 cb3d 0405 343d
000000c0: ce87 d7bd 181c 71bc e08a debc 6819 f83c
000000d0: 457f 84bd 5080 bf3c 2019 53bc 00f2 873c
000000e0: 1cf2 383d c018 e93c d066 3d3c f1fa fbbd
000000f0: 0000 99bd faad e43d 6869 873d e010 0b3e
00000100: 2009 f03d 3c0a 8e3d 6370 06be 3b28 c2bd
00000110: 6884 cbbc b8a1 9e3d 2843 a43d 00f7 39bc
00000120: d894 84bc 0eb1 a63d 0cc1 1a3d 840d 49bd
00000130: fbe2 a0bd a834 1d3d a0eb af3b 2e30 e83d
00000140: 947f 5cbd cc09 f9bd a892 f73c a89f e03c
00000150: 2c5c 61bd f400 f03d 4ea2 9d3d 3c18 03be
00000160: aec8 43bd 9c3a b2bc b0ce 0bbd 4087 33bd
00000170: 581a c63c 58d5 d93c 1dea 86bd 7e74 d93d
00000180: ec67 cb3d 6283 91bd 0ab9 04be 9e9d fabd
00000190: d010 85bc 2ffe aebd f67e 09be 042d bf3d
000001a0: 0cc3 a1bd 5c5d 813d c2e3 54bd 0005 6d3a
000001b0: b9f8 07be 2357 bfbd 38e6 803c b6de a6bd
000001c0: f02c 073e e99e edbd 90fa a23d b073 5e3c
000001d0: c005 263d 4f90 eabd 5ae2 e6bd fcbc a73d
000001e0: 2c08 8bbc 5c74 6a3d a070 d03b a0d7 9cbc
000001f0: 1c7d 0abe 10b2 dcbd b0d3 8abc 2482 b4bc
00000200: 041c fabd 444e 48bd 80c5 1f3c 4a19 073e
00000210: b801 e83c da06 c3bd 15ee c1bd a09e 0cbc
00000220: 80b6 013e 9638 a53d ec78 9dbc 80b0 913a
00000230: 3ca7 c73d 904d c3bc 00c0 7eb8 9934 f9bd
00000240: 72a5 e63d 8055 a03d aeb1 ccbd 52c3 b53d
00000250: c783 03be d442 3d3d f8fa 53bd 2006 673c
00000260: 8c04 ea3d 264c 003e f8c7 e63c 9cbc 44bd
00000270: a295 32bd 8138 07be 28bf e7bc 3b7e cdbd
00000280: a291 1fbd 2c3e 08be 4877 4abc e264 a3bd
00000290: 542e 7b3d 1024 1bbd e746 05be c1bd a3bd
000002a0: 7802 85bd 9846 eb3c 14db 00be 6f9b d1bd
000002b0: 3412 cebd 202d a3bc d337 afbd c588 babd
000002c0: 8050 753b 44e2 803d 9487 58bd e9bd fabd
000002d0: 201d d7bc 966b e6bd ba80 e13d ce3e fcbd
000002e0: 007a 4a3d 64a1 c3bd 3c8e c93d fee1 a53d
000002f0: 726c cebd 0479 b2bd d0bc 513d b08d 723d
00000300: 001c 9f3c 58e3 f73d 80d4 81ba c6d1 073e
00000310: 080c fa3d 2468 a1bc 2e1f 033e fa44 df3d
00000320: 6e61 38bd f8cc 59bd 3269 c43d f893 b2bd
00000330: 4060 02be c0a8 923b 6e89 b33d a872 39bc
00000340: b014 303c 3aed a53d 5374 96bd 026a 893d
00000350: d6ec 5fbd 421b bf3d d62a 3cbd 30a2 dd3d
00000360: e064 d13b a0bc 25bc 857e febd 5a22 bc3d
00000370: 2e9f 803d 3a82 b03d 600a d73d 8c90 803d
00000380: 602b 383c 66d2 06bd b0ad eb3d cd93 03be
00000390: 34c0 4b3d 30c6 66bd 2817 1f3d c08b 113d
000003a0: 1ea5 043e a0b3 0f3c f636 62bd 18e1 c93c
000003b0: 70ca b43c d029 acbd e00d 953d 8840 91bd
000003c0: c2d8 b83d 8c95 0ebd 0412 0b3e ecc0 c03d
000003d0: f009 e4bc 811e acbd fa2a 943d 143e e43d
000003e0: d8da 803c 4019 46bb 70d5 1bbc ccc7 9bbd
000003f0: 61ae 07be 0002 59bb 6c46 9b3d 089d 11bd
-0.044440232 0.12726605 -0.08726133 -9.448826e-05 -0.11611031 -0.057437122 0.059601113 0.078350514
-0.13555597 0.065203056 -0.087463036 0.1235086 -0.014365412 0.08758965 -0.04274352 -0.08069526
0.07178296 0.03815198 -0.062097184 0.0969211 0.10856752 -0.027049288 -0.033576235 0.035792038
-0.11730182 0.056455463 0.020071417 0.048914477 0.036351666 0.031790614 0.085853666 0.022901729
-0.13311562 -0.086562954 0.070289165 -0.05005405 -0.1016839 0.10983905 -0.10190428 0.09430015
0.08271311 0.093206406 0.11432454 -0.015420981 -0.0871612 0.091311395 0.099459216 0.043950096
-0.105239496 -0.014716171 -0.02716583 0.030285552 -0.06469587 0.023376614 -0.012884408 0.016594887
0.04515277 0.028454185 0.011560157 -0.12303723 -0.07470703 0.11165996 0.066119015 0.13580656
0.117204905 0.06935546 -0.1312881 -0.094803296 -0.02484341 0.07745689 0.080206215 -0.011350393
-0.016184255 0.08139239 0.03778176 -0.049085155 -0.07855793 0.038380295 0.005368665 0.113373145
-0.053832605 -0.12160072 0.030221298 0.02741988 -0.055019543 0.11718932 0.07696973 -0.12802213
-0.047798805 -0.021756463 -0.03413266 -0.043830156 0.024182484 0.026590988 -0.06587622 0.10617922
0.09931931 -0.071051374 -0.12961212 -0.12237094 -0.016243368 -0.085445754 -0.13427338 0.09334758
-0.0789853 0.06316635 -0.05197502 0.00090415776 -0.13278474 -0.09342792 0.015734777 -0.081479475
0.13200736 -0.11602575 0.07957947 0.013577387 0.040532827 -0.11453306 -0.11273642 0.08190343
-0.01697167 0.057239875 0.006361082 -0.019145787 -0.13524288 -0.1077615 -0.016946644 -0.022034712
-0.12212375 -0.048902765 0.0097516775 0.13193241 0.028321132 -0.09522791 -0.09469239 -0.008582741
0.12667274 0.080674335 -0.0192227 0.0011115223 0.09748694 -0.023840696 -6.0737133e-05 -0.12168235
0.11262025 0.07828808 -0.09994827 0.08875145 -0.12843238 0.04620631 -0.051753014 0.014100581
0.114266485 0.12529048 0.028171524 -0.048031434 -0.043599732 -0.13205148 -0.028289393 -0.10033842
-0.038957246 -0.13304967 -0.01235754 -0.07978226 0.06132348 -0.03787619 -0.13015328 -0.07995177
-0.064946115 0.028720185 -0.12583572 -0.10234725 -0.10062066 -0.019918978 -0.085555695 -0.09108118
0.0037432015 0.06293157 -0.052863672 -0.12243254 -0.026259005 -0.11250989 0.11010881 -0.123166665
0.049432755 -0.09552267 0.09841582 0.08099745 -0.10079278 -0.08714488 0.051205456 0.059217155
0.019422531 0.12103909 -0.0009905249 0.13263616 0.12209326 -0.019702978 0.12804863 0.10901828
-0.04501479 -0.05317399 0.09590377 -0.08719629 -0.12732029 0.004475683 0.08766447 -0.01131884
0.01074712 0.08101888 -0.07346406 0.067096725 -0.054669224 0.09331371 -0.04593929 0.108219504
0.006390199 -0.0101157725 -0.124264754 0.091862395 0.06280361 0.08618589 0.10500026 0.0627757
0.01124081 -0.032915495 0.11507738 -0.1284935 0.049743846 -0.05634135 0.038840443 0.035533667
0.12953612 0.008770853 -0.055228196 0.024643466 0.022069186 -0.084064126 0.07278037 -0.070923865
0.09025718 -0.034810588 0.13581091 0.09411797 -0.02783677 -0.08404256 0.0723476 0.11144653
0.015729353 -0.0030227453 -0.009511337 -0.076064676 -0.13250114 -0.0033112764 0.07581791 -0.035550147

conv2.bias f4 [16]
00000000: 9af2 72bd a020 813c 8e33 d1bd 5040 a03d
00000010: 28b3 023d 6028 c6bb 5023 143d d4bd a93d
00000020: d4ac bb3d f0cd a6bd 48ac 67bc 2028 063d
00000030: 0ae5 58bd c0db ba3c 9e63 dfbd 8c7b eabd
-0.059313394 0.015762627 -0.102149114 0.07824767 0.031909138 -0.0060472935 0.03616649 0.0828816
0.09163824 -0.08144748 -0.014140196 0.03275311 -0.052952804 0.022809863 -0.10907672 -0.11449346

fc1.weight f4 [1, 16]
00000000: 7425 653e 406c 86bb 0853 c73d 0864 fe3d
00000010: d653 0f3e 7013 2e3d 0e19 6ebe a06e b5bc
00000020: 8493 bebd 32fa 3dbe 1e47 7f3e 08ed 32be
00000030: 203f 033d 1c14 073e 664e 153e c602 7d3e
0.22377568 -0.00410226 0.09732634 0.12421423 0.13996825 0.042499006 -0.23251745 -0.022147477
-0.0930548 -0.18552473 0.24929473 -0.17473233 0.032042623 0.13191265 0.14580688 0.24708089
