data/numer2.pth (torch, 5775 bytes, 5 tensors)

conv1.weight f4 [6, 1, 3, 3]
-0.1635565 -0.1045233 0.28080347 -0.2877496 -0.32630557 0.109000474 0.1970419 -0.2755919
0.029359698 0.18510321 0.045396447 0.25428823 0.3110362 -0.06558642 0.3244191 -0.010947853
-0.014325768 -0.06532553 -0.0861882 -0.19596788 -0.29446334 -0.01552245 0.20208266 -0.20780456
-0.31013036 -0.10021131 -0.07908043 0.14712024 0.042583942 -0.11722013 0.09527516 -0.15065229
-0.28147113 -0.07274273 -0.27786943 -0.27798468 0.3327615 0.03837815 -0.16383266 0.052292913
0.14292634 -0.31852984 0.058255106 -0.25218385 -0.119793266 0.21806106 -0.0578537 0.037034035
-0.0816032 -0.17718062 -0.300459 0.018778414 0.0071838796 -0.18056569
00000000: 5b7b 27be 5010 d6bd 79c5 8f3e ea53 93be
00000010: 8611 a7be a43b df3d 5ac5 493e 621a 8dbe
00000020: c083 f03c b28b 3d3e a0f1 393d 1132 823e
00000030: 2340 9f3e 2c52 86bd 431a a63e a05e 33bc
00000040: a0b6 6abc 64c9 85bd 7083 b0bd ceab 48be
00000050: e6c3 96be e051 7ebc c2ee 4e3e b8ca 54be
00000060: 68c9 9ebe 963b cdbd ecf4 a1bd b0a6 163e
00000070: 806c 2e3d 1c11 f0bd a01f c33d 9844 1abe
00000080: fc1c 90be 24fa 94bd e744 8ebe 0254 8ebe
00000090: b75f aa3e 6832 1d3d c0c3 27be 1831 563d
000000a0: 485b 123e 5816 a3be e89c 6e3d 3e1e 81be
000000b0: 2c56 f5bd 664b 5f3e 00f8 6cbd 00b1 173d
000000c0: 941f a7bd d66e 35be c3d5 99be 30d5 993c
000000d0: c066 eb3b 36e6 38be

conv1.bias f4 [6]
-0.20314357 -0.1176053 0.13631943 0.16835985 0.20507088 -0.21769878
00000000: de04 50be 0cdb f0bd 5297 0b3e 8666 2c3e
00000010: 1afe 513e 6eec 5ebe

conv2.weight f4 [16, 6, 3, 3]
-0.046223387 0.13072431 0.101867005 0.060018897 -0.052999295 -0.029279344 -0.062700585 -0.08816405
-0.0928341 -0.06608598 0.0135554075 0.014137119 0.07491967 -0.12464635 0.088310525 0.057095736
0.13015309 0.10622169 0.057026297 -0.07761057 -0.0267163 -0.02541601 0.072343856 -0.047776252
-0.1224235 0.11751887 0.026474163 0.09829758 0.10602912 -0.03743504 0.02341935 0.046079174
-0.034160137 -0.05967564 -0.060136616 -0.04860361 -0.03207907 0.09994049 -0.120730996 0.1341399
-0.0052387565 -0.094568364 -0.05059644 -0.020919621 0.032121524 -0.12022085 0.10384253 -0.00398317
-0.13166857 0.038590148 -0.12189978 -0.110971496 -0.12210084 -0.12986925 0.04660864 0.11935404
0.036744088 -0.12838058 -0.1240868 -0.025162973 0.10818452 0.11090729 -0.122410215 0.08253007
0.013704807 -0.018872686 -0.06883829 0.023092031 0.09568696 -0.07156894 -0.03729906 0.07233822
-0.037119642 0.12756425 -0.081272766 -0.025279224 0.13322347 0.04675345 0.11327557 -0.10441947
-0.09805308 -0.07040303 -0.025581881 -0.049354814 -0.09097333 -0.05175384 0.0039807707 0.092078045
-0.013132513 0.10931444 0.07633071 -0.042591892 -0.103369825 -0.1295269 -0.091511905 -0.05383411
0.029453874 -0.11240065 0.026496708 0.023190394 -0.12394065 -0.08461173 -0.12363485 -0.10625797
-0.013644405 0.023089439 -0.059621423 0.044876963 -0.11487733 -0.09101584 0.015277877 -0.124727316
-0.052348353 0.046026394 0.0784255 0.123815894 -0.08243265 -0.06095674 0.07415643 0.04338345
0.11487591 -0.07335147 0.11113569 0.027841568 -0.0060548186 -0.13490944 -0.1298406 -0.025126413
0.04763788 0.02983214 0.1102353 -0.108806476 -0.090312436 -0.05158928 -0.097711556 0.03088127
0.06748165 0.070759565 -0.08995152 -0.033654243 -0.02122444 0.044513837 0.13557333 -0.016093738
-0.056681976 0.049500585 -0.0021244138 -0.050252564 -0.12955226 -0.09194075 0.030233115 0.05255702
-0.0532727 0.014791712 0.059614256 -0.048514374 -0.012402639 0.062122047 0.12257326 -0.09019927
0.0028960407 0.106226996 0.005458221 0.13102382 0.11075202 0.078195244 0.09314309 -0.060683712
0.12730429 0.09413916 -0.08911909 0.010638997 -0.055684887 0.10212833 0.06825465 0.091369584
0.06767416 0.032563716 0.09041622 0.03532988 -0.032590047 0.08935708 -0.13251404 0.11158608
-0.0028242767 0.009716451 0.017512798 -0.04106219 0.0022674054 -0.005441144 0.095372796 0.07763426
0.07153277 -0.015828714 -0.07921953 -0.05686047 -0.058278315 0.10251285 -0.043327346 -0.106895894
-0.104347154 -0.13402031 -0.04202169 0.022271574 0.08618228 -0.06096699 -0.12909225 0.063209176
0.060430095 0.12681082 0.010746047 -0.115899235 -0.12377177 0.045479313 -0.053354062 0.08515507
-0.12444915 0.0054033995 0.041408986 -0.023438707 -0.044598952 -0.07885287 0.053854972 0.075913
0.018477857 0.03883277 0.102418914 -0.110454895 0.10302889 0.045276687 0.12572947 0.03724137
-0.105515115 -0.082230136 -0.020485945 -0.049993202 0.0031307042 0.029154226 -0.07105285 -0.019351535
0.047077596 -0.057417847 -0.0909216 -0.07892081 -0.121690914 0.115195125 -0.021232985 -0.0029089302
-0.059118323 0.11980581 -0.0056099296 -0.06266039 -0.03651332 -0.077154964 0.0830515 0.123369336
00000000: bc54 3dbd 98dc 053e a69f d03d 60d6 753d
00000010: ca15 59bd 3cdb efbc 2a69 80bd 5a8f b4bd
00000020: ce1f bebd 1658 87bd 8017 5e3c 609f 673c
00000030: 7c6f 993d 9646 ffbd 26dc b43d 38dd 693d
00000040: da46 053e c28a d93d 6894 693d 4af2 9ebd
00000050: 24dc dabc 3c35 d0bc 0429 943d 08b1 43bd
00000060: 2cb9 fabd bcad f03d 58e0 d83c 3e50 c93d
00000070: cc25 d93d 7c55 19bd f0d9 bf3c 84bd 3c3d
00000080: 80eb 0bbd 726e 74bd d051 76bd 9414 47bd
00000090: 5865 03bd 9aad cc3d d041 f7bd f85b 093e
000000a0: e0a9 abbb 0fad c1bd 363e 4fbd a05f abbc
000000b0: dc91 033d 5936 f6bd 64ab d43d 4085 82bb
000000c0: 20d4 06be b410 1e3d 98a6 f9bd 0645 e3bd
000000d0: 0110 fabd 72fc 04be b4e8 3e3d e46f f43d
000000e0: f880 163d 3376 03be 3821 febd 9422 cebc
000000f0: d88f dd3d 5c23 e33d 35b2 fabd 8605 a93d
00000100: 208a 603c e49a 9abc 17fb 8cbd 802b bd3c
00000110: 86f7 c33d bd92 92bd e6c6 18bd 1026 943d
00000120: c40a 18bd 34a0 023e 5672 a6bd 6016 cfbc
00000130: bc6b 083e 8c80 3f3d 06fd e73d e0d9 d5bd
00000140: 0ed0 c8bd 772f 90bd 1891 d1bc 4628 4abd
00000150: 3a50 babd d6fb 53bd 2071 823b 6a93 bc3d
00000160: c029 57bc 40e0 df3d 4653 9c3d d674 2ebd
00000170: 8fb3 d3bd b3a2 04be 986a bbbd 2881 5cbd
00000180: 4049 f13c 5032 e6bd a00f d93c c8f9 bd3c
00000190: 98d4 fdbd ea48 adbd 4534 fdbd c79d d9bd
000001a0: c88c 5fbc 1026 bd3c 9835 74bd e8d0 373d
000001b0: ce44 ebbd 8366 babd 1050 7a3c 0971 ffbd
000001c0: 3a6b 56bd 2c86 3c3d 8c9d a03d 3093 fd3d
000001d0: 73d2 a8bd c6ad 79bd 54df 973d d8b2 313d
000001e0: 1044 eb3d 4c39 96bd 1c9b e33d 0014 e43c
000001f0: 8067 c6bb b325 0abe eff4 04be e8d5 cdbc
00000200: f01f 433d 8862 f43c 0cc3 e13d eed5 debd
00000210: baf5 b8bd 484f 53bd ff1c c8bd b8fa fc3c
00000220: d233 8a3d 64ea 903d 8138 b8bd 08d9 09bd
00000230: e0de adbc 2454 363d bcd3 0a3e 04d7 83bc
00000240: 5c2b 68bd 20c1 4a3d c039 0bbb a2d5 4dbd
00000250: 59a9 04be 6f4b bcbd 70ab f73c 0846 573d
00000260: 7a34 5abd f058 723c 142e 743d 02b7 46bd
00000270: 7034 4bbc b073 7e3d b007 fb3d 65ba b8bd
00000280: 80cb 3d3b 8a8d d93d e0da b23b 1c2b 063e
00000290: f4d1 e23d d424 a03d cec1 be3d 7c8f 78bd
000002a0: 0e5c 023e 08cc c03d 1284 b6bd 304f 2e3c
000002b0: d615 64bd a828 d13d 18c9 8b3d fa1f bb3d
000002c0: c098 8a3d 8861 053d 242c b93d 10b6 103d
000002d0: 247d 05bd d800 b73d c3b1 07be 3e87 e43d
000002e0: 8017 39bb c031 1f3c 0077 8f3c d430 28bd
000002f0: c098 143b a04b b2bb d052 c33d b6fe 9e3d
00000300: c67f 923d 38ab 81bc d93d a2bd 86e6 68bd
00000310: 3eb5 6ebd 42f2 d13d 0478 31bd 3cec dabd
00000320: f6b3 d5bd 9f3c 09be f01e 2cbd e072 b63c
00000330: 5680 b03d 86b8 79bd c230 04be d073 813d
00000340: 8c85 773d b2da 013e 3010 303c 945c edbd
00000350: 0e7c fdbd 8448 3a3d ca89 5abd c865 ae3d
00000360: 32df febd 000f b13b 789c 293d 8802 c0bc
00000370: 64ad 36bd 9d7d a1bd 0897 5c3d 4678 9b3d
00000380: e05e 973c 1c0f 1f3d 02c1 d13d 2d36 e2bd
00000390: d000 d33d 0c74 393d 3abf 003e 688a 183d
000003a0: 4f18 d8bd 4668 a8bd 24d2 a7bc acc5 4cbd
000003b0: 802c 4d3b d8d4 ee3c 2884 91bd 1c87 9ebc
000003c0: 70d4 403d fa2e 6bbd 1b35 babd 3ca1 a1bd
000003d0: 1639 f9bd 6ceb eb3d ccf0 adbc c0a3 3ebb
000003e0: 0e26 72bd c05c f53d 80d3 b7bb 1754 80bd
000003f0: fe8e 15bd 6c03 9ebd e816 aa3d 10a9 fc3d

conv2.bias f4 [16]
-0.11959431 0.01571633 0.063920826 -0.116452016 -0.12608518 0.07921855 -0.11290396 -0.09823769
0.056685045 0.036429852 -0.039575167 0.022522032 0.00094647706 -0.005621493 -0.03514871 0.040494442
00000000: dded f4bd 88bf 803c ece8 823d 657e eebd
00000010: 791c 01be 563d a23d 313a e7bd d830 c9bd
00000020: 942e 683d 7837 153d 9219 22bd 2080 b83c
00000030: 001d 783a 8034 b8bb 18f8 0fbd 80dd 253d

fc1.weight f4 [1, 16]
-0.09410104 -0.22186661 -0.19442457 -0.11067304 0.016336262 0.06853834 0.08916727 -0.18656355
-0.16161358 0.16029623 -0.176575 -0.120471984 0.076628596 -0.10355303 0.23118263 -0.11414459
00000000: 0cb8 c0bd 0031 63be 3c17 47be 8ca8 e2bd
00000010: a0d3 853c d45d 8c3d 549d b63d 840a 3fbe
00000020: 087e 25be b224 243e 14d0 34be 04ba f6bd
00000030: 74ef 9c3d 9c13 d4bd 24bb 6c3e a4c4 e9bd
